…
INFO:lm_eval.api.task:Building contexts for arc_challenge on rank 0...
DEBUG:lm_eval.evaluator:Task: arc_challenge; number of requests on this rank: 4687
INFO:lm_eval.api.task:Building contexts for arc_easy on rank 0...
DEBUG:lm_eval.evaluator:Task: arc_easy; number of requests on this rank: 9501
INFO:lm_eval.api.task:Building contexts for piqa on rank 0...
DEBUG:lm_eval.evaluator:Task: piqa; number of requests on this rank: 3676
INFO:lm_eval.evaluator:Running loglikelihood requests
DEBUG:lm_eval.models.huggingface:Failed to get model SHA for LlamaForCausalLM_KIVI(
  (model): LlamaModel_KIVI(
    (embed_tokens): Embedding(32000, 4096)
    (layers): ModuleList(
      (0-31): 32 x LlamaDecoderLayer_KIVI(
        (self_attn): LlamaAttention_KIVI(
          (q_proj): Linear(in_features=4096, out_features=4096, bias=False)
          (k_proj): Linear(in_features=4096, out_features=4096, bias=False)
          (v_proj): Linear(in_features=4096, out_features=4096, bias=False)
          (o_proj): Linear(in_features=4096, out_features=4096, bias=False)
          (rotary_emb): LlamaRotaryEmbedding()
        )
        (mlp): LlamaMLP(
          (gate_proj): Linear(in_features=4096, out_features=11008, bias=False)
          (up_proj): Linear(in_features=4096, out_features=11008, bias=False)
          (down_proj): Linear(in_features=11008, out_features=4096, bias=False)
          (act_fn): SiLU()
        )
        (input_layernorm): LlamaRMSNorm()
        (post_attention_layernorm): LlamaRMSNorm()
      )
    )
    (norm): LlamaRMSNorm()
  )
  (lm_head): Linear(in_features=4096, out_features=32000, bias=False)
) at revision main. Error: Repo id must be a string, not <class 'models.llama_kivi.LlamaForCausalLM_KIVI'>: 'LlamaForCausalLM_KIVI(
  (model): LlamaModel_KIVI(
    (embed_tokens): Embedding(32000, 4096)
    (layers): ModuleList(
      (0-31): 32 x LlamaDecoderLayer_KIVI(
        (self_attn): LlamaAttention_KIVI(
          (q_proj): Linear(in_features=4096, out_features=4096, bias=False)
          (k_proj): Linear(in_features=4096, out_features=4096, bias=False)
          (v_proj): Linear(in_features=4096, out_features=4096, bias=False)
          (o_proj): Linear(in_features=4096, out_features=4096, bias=False)
          (rotary_emb): LlamaRotaryEmbedding()
        )
        (mlp): LlamaMLP(
          (gate_proj): Linear(in_features=4096, out_features=11008, bias=False)
          (up_proj): Linear(in_features=4096, out_features=11008, bias=False)
          (down_proj): Linear(in_features=11008, out_features=4096, bias=False)
          (act_fn): SiLU()
        )
        (input_layernorm): LlamaRMSNorm()
        (post_attention_layernorm): LlamaRMSNorm()
      )
    )
    (norm): LlamaRMSNorm()
  )
  (lm_head): Linear(in_features=4096, out_features=32000, bias=False)
)'.
INFO:__main__:|    Tasks    |Version|Filter|n-shot| Metric |   |Value |   |Stderr|
|-------------|------:|------|-----:|--------|---|-----:|---|-----:|
|arc_challenge|      1|none  |     0|acc     |  |0.4352|  |0.0145|
|             |       |none  |     0|acc_norm|  |0.4625|  |0.0146|
|arc_easy     |      1|none  |     0|acc     |  |0.7630|  |0.0087|
…
